Day8/cifar_net.pth (torch, 251167 bytes, 10 tensors)

conv1.weight f4 [6, 3, 5, 5]
00000000: 3159 48be 9270 cabc b97f 76bd 2f58 23bd
00000010: dc89 a7bd 9918 1ebe 595d 24bd bac4 f2bd
00000020: d796 04be 2c27 b7bd ceb6 85be 946d 20bd
00000030: 7448 d6bd d33a 61be fad1 ffbd ede7 7ebe
00000040: 5659 18be eb96 53be 81f4 eebc ef26 3fbe
00000050: 8b72 4bbe 8b66 3cbd 7f5f 3ebe 5a41 c3bd
00000060: eb32 6bbe 5f5e f5bb f3ce c9bc 61b9 4fbd
00000070: aa39 193d 135a afbd 1885 b9bd 8fb9 023d
00000080: c38a f23c 0866 26bd 6b0f d73c df14 c3bd
00000090: 3876 8b3d eaf4 713d b40f 8a3b 51ed d83c
000000a0: b869 943c 1899 253e 4aef 2fbd a1fe 993c
000000b0: 94d5 afbd 646f 45be 2412 6f3d 11c6 07be
000000c0: 8020 aa3d 3da4 933b 6adc 053e 1f14 4f3d
000000d0: 51de 9c3c 6d1c c0bc 172d dabc c501 073e
000000e0: 9f0a 393e 3dad 023e 647d 863e f706 f73d
000000f0: 4b03 343e 566f 723e 9d90 f73d 0a5f 8e3e
00000100: d6e5 223e 5a3a 15bd ea19 f93d 0d28 aa3d
00000110: 7d29 273e f6b5 e03d f355 0a3d 413f 643e
00000120: 07a5 093e d95c 903d 3560 b53c 5052 743e
00000130: 2ad0 1b3f 07bb 473f a8d9 123f 9066 743e
00000140: 7137 353d be26 723e 4cd1 753e 67a9 a13e
00000150: 7864 c93b 89b1 68bd 34dc 3ebe 5f57 9cbe
00000160: db3f 4ebd b525 c8bc 3f10 eebd 1972 fabc
00000170: b92e f039 29e1 843d cd6b 7d3d d32a c9be
00000180: d1a5 7abe 2c8b 28be 1e6c 36be 4254 64be
00000190: 9536 293e fedd 0e3e 2955 d63e 62e4 7c3e
000001a0: 3e67 ad3c adaa 42be 6c19 8ebd d3f1 1fbe
000001b0: c4eb 8dbe 4ca6 b0be e18c cabd 8774 05bf
000001c0: 92bf 3bbf 0232 2abf 5dcd 68be 4109 263e
000001d0: 6033 75b9 cf35 8cbd f646 9ebd 0e6c 0dbd
000001e0: e491 48be 703f febd c4f9 efbd 46b7 37bd
000001f0: eeb1 93bd 207f ec3d 4210 d23d 6e3f 8c3e
00000200: b73e cd3d 3b82 183e 3415 bfbd cc3d cebd
00000210: a745 79be 3a63 85be cccc 4ebe c07e 21bd
00000220: 83a1 c6be 9601 10bf b36d d8be e212 ebbc
00000230: 5b60 8c3e d34f 013e b37b fe3d 203f 4c3e
00000240: 7b5b ba3e 8a84 873e d52a a23e 5d4e b13e
00000250: ca04 723e 3238 9a3e ed47 a33d 1b74 273e
00000260: 7f1f dc3e 08eb 003e 8293 ac3d 877a 5fbe
00000270: a34c 343e 955f 0b3f 7dc4 c83d f929 c3be
00000280: c3ad 60be 4ded 653d 3783 053f 649b 973d
00000290: a507 fabe 3cfd 36be 3174 08bc f3f3 c13e
000002a0: 2225 a6bd 66ef 74be 4e62 e93b 3c96 b23d
000002b0: 083d 223e fd84 983c 6219 11bd 1a9c aabe
000002c0: 614f 323d 0281 1b3e 39d3 9ebe fb30 14bf
000002d0: 0903 74be 5222 0e3e 77fe b63e 5a2b 07be
000002e0: fd70 2bbf b78d 7ebe b58a 4d3d 93cd 183f
000002f0: 4e03 803d 8788 27bf 9095 97bd 673f 033e
00000300: bbc2 ad3e f41c 30bd c8ed babe fee7 cd3d
00000310: 4046 383d ac26 7a3e abca 063d 24db 13be
00000320: e26d 3dbe 1cd5 923d 045a a63e 4373 04be
00000330: d14a 9ebe 3171 58be 1b1c 033e 7284 0e3f
00000340: 8de5 273c a76d 89be d1b4 36be fddc c83c
00000350: 0130 0d3f 5cb9 173c 9a6a e1be 73ac 59be
00000360: 994b b53d f3b0 b03e cb44 9f3d af36 7abe
00000370: b001 2fbd 409b 593e 901c b63d c953 d13d
00000380: 329a aa3d 18ac 2abe 1c8e 65be 5adc 7abe
00000390: 734b a4be 30d0 97be 2310 323c 1efc 463e
000003a0: dfda 363e 259a cc3d 2d20 2b3d bec1 143e
000003b0: 6c0e 923e 6eda 0b3e 0de2 783e 1c42 5d3e
000003c0: 3848 ce3d 8c79 663e 595f e73d 37c8 183e
000003d0: 2a3c 3f3e d722 583e f15f 183e b784 633e
000003e0: a562 903d 3c9f 813e 9300 30be c958 22be
000003f0: d274 0fbe 7e75 1abe f99b 05be 0e9c fcbc
-0.19565274 -0.02471188 -0.0601804 -0.03987902 -0.081805915 -0.15439071 -0.040128086 -0.11853929
-0.12948166 -0.08943018 -0.2611603 -0.039167 -0.10463038 -0.21995096 -0.12491222 -0.2489316
-0.14877829 -0.2066304 -0.029169323 -0.18667196 -0.19867913 -0.04599623 -0.18591116 -0.09533949
-0.22968642 -0.0074880566 -0.024634814 -0.0507139 0.03740851 -0.08562102 -0.09058589 0.031915244
0.029607182 -0.04062465 0.026252469 -0.09525465 0.06809658 0.05907146 0.0042132977 0.026480349
0.018116817 0.16171682 -0.042952813 0.018798174 -0.08585659 -0.19280773 0.05836691 -0.1325915
0.0830698 0.0045056627 0.13072363 0.0505563 0.019148977 -0.023451054 -0.026632829 0.13184269
0.18070458 0.12761398 0.2626754 0.12061875 0.17579381 0.23675284 0.1208813 0.27806884
0.15907988 -0.0364326 0.12163146 0.0830842 0.1632442 0.10972206 0.033773374 0.22289754
0.13441859 0.07048959 0.022140602 0.23859525 0.6086451 0.78019756 0.5736337 0.2386725
0.044242326 0.23647591 0.24005622 0.31574556 0.00614601 -0.056809936 -0.18638688 -0.3053541
-0.050353866 -0.024432043 -0.116241924 -0.030571984 0.00045811178 0.064882584 0.061870385 -0.39290485
-0.24477316 -0.1645934 -0.17814681 -0.22297767 0.16524728 0.13951871 0.41861847 0.24696496
0.021167394 -0.1901042 -0.069384426 -0.15619592 -0.27718937 -0.34501874 -0.09890152 -0.5213093
-0.7333919 -0.66482556 -0.2273459 0.16214468 -0.0002338416 -0.06846201 -0.077283785 -0.034526877
-0.19586903 -0.124144435 -0.11717561 -0.044852518 -0.07211672 0.11547685 0.10257007 0.27392143
0.100217275 0.14893429 -0.09330216 -0.100703806 -0.24342977 -0.26052266 -0.20195311 -0.03942752
-0.387951 -0.5625242 -0.42271194 -0.028695527 0.27417263 0.12628107 0.124259375 0.19945955
0.3639792 0.26468307 0.31673303 0.346301 0.2363464 0.30121 0.07972703 0.16352884
0.4299278 0.12589657 0.084265724 -0.21824084 0.1760736 0.5444272 0.09803102 -0.3811796
-0.21941285 0.05613451 0.5215334 0.07402685 -0.48833957 -0.17870039 -0.008328483 0.3788143
-0.08112551 -0.23919448 0.0071223145 0.08720061 0.15843594 0.018618101 -0.035424598 -0.3332222
0.043532733 0.15185931 -0.31020525 -0.5788724 -0.23829283 0.1388028 0.35741016 -0.13200131
-0.6696928 -0.24858747 0.05018111 0.5968868 0.0625063 -0.654427 -0.07401574 0.12817155
0.3393763 -0.04299636 -0.36509538 0.100540146 0.04498887 0.24428815 0.032908123 -0.14439064
-0.18498948 0.07169554 0.3249055 -0.12934594 -0.30916455 -0.21136929 0.1280369 0.55670846
0.0102476 -0.2684147 -0.17842413 0.024519438 0.55151373 0.009260502 -0.44026643 -0.2125719
0.0885231 0.34510002 0.07776793 -0.24434923 -0.04272622 0.2125063 0.088921666 0.10221059
0.08330192 -0.16667211 -0.22417492 -0.2449812 -0.32088813 -0.29651022 0.010868105 0.19432113
0.1785693 0.09990338 0.041778732 0.14527032 0.28526628 0.13657543 0.24304982 0.2160725
0.100723684 0.22507304 0.11297483 0.14920126 0.18675295 0.2110704 0.14880349 0.22218595
0.07050065 0.253168 -0.17187719 -0.15854181 -0.14009407 -0.15083882 -0.1304778 -0.030836131

conv1.bias f4 [6]
00000000: 6dd3 303c 8088 d2be 120e 93be 3f1d 823e
00000010: a048 b13e ddb0 a5bd
0.010792595 -0.41119766 -0.28721672 0.25412938 0.3462572 -0.080903746

conv2.weight f4 [16, 6, 5, 5]
00000000: bd74 b2bd 2727 25bc 5cae 3abd 8cb9 6d3c
00000010: d4eb 6dbd 6a6f 41bd 10ed 90bd 6908 f8bb
00000020: 129f 803d 23fc b43d f3dc 05bb 6a72 b53c
00000030: b077 9b3b 5fa2 70bc 3dc7 523c 75bb 8fbc
00000040: 2a8e acba 8f42 0fbd 6b6f 25bc 5717 cf3d
00000050: 412c 32bd 2200 953c 0808 84bd 5ee9 21bd
00000060: 8d17 953d 902c 92bd 443e 353e 62e7 573e
00000070: dbb2 2c3e 9a78 bfbd ec92 073e cfa0 0f3e
00000080: 7af9 0e3e 8295 903d b75a e2bd 8030 1c3e
00000090: 5010 003d 9723 013d 9d6b 0bbe 7d42 1fbe
000000a0: 6466 d1bc 8bfd bebd a6c7 b4bb fb97 eabd
000000b0: c72b 50bd d3a1 1bba dfcf 0abc 9432 94bc
000000c0: dfba c9bd f551 2c3d a00e 21bd 5610 adbd
000000d0: abd6 a9bd dfaf 83bd b265 e1bd 8e3b 1fbd
000000e0: d061 dbbd 0f9c 22be 7db3 0ebe 1341 d9bd
000000f0: a46f b2bd c6d7 bdbd bb17 17be 14a1 ccbd
00000100: 6744 9cbd 40da 373b 98fa d1bd 0e70 d9bd
00000110: 930e 72bc 2c01 a63c 6117 d2bc 119c 8dbd
00000120: 0efb 393c bc44 ab3c 1cd8 dc3c 629e 00bd
00000130: e4c1 3ebd 1707 35bc 2f8e 11bd a495 0a3e
00000140: 13a1 653d 208b d2bd 7167 a4bd dbd4 8fba
00000150: b487 e73d 18bd 5cbc 9778 cbbd 331d f3bd
00000160: 6833 8c3d 0c98 f23d 2969 7fbd b438 fcbd
00000170: 4201 e0bd b3ad ad3d 051e b53d a86f e3bd
00000180: d43a 81bc 6ac1 c3bd cf56 d13a 31e3 ad3d
00000190: 9f04 55bd b1b9 d0bd 224d 5abc cafa d43c
000001a0: b3d1 6e3d ef3a f7bc 7ce0 613d 911a 8d3c
000001b0: 1599 52bd 20b9 313c b154 9fbd 814e 343c
000001c0: d694 07be a040 12bd 7acf 943d 21f9 11be
000001d0: 8588 83bc 2127 5abd 3090 04bd 9e73 d43d
000001e0: 7bd7 85bd 9875 06be a7ca 72bd 9b43 5e3d
000001f0: f804 e33c a63d 953d 0959 c33c f11a dcbc
00000200: e066 d5bd e2fd 553d 0a9e f0bc 8142 5e3c
00000210: 4c0e a2bd 6885 1cbd ca43 2b3d 3c3a d0bd
00000220: 8182 b4bd 6814 abbd 36e0 903d ef04 7c3d
00000230: bf34 5bbd 282e acbc 70cc 4dbd 9234 a03d
00000240: e829 cd3d 9fce fcbd 6a68 cdbc 0696 173d
00000250: c615 313d 7b95 cebc 66c6 4ebd c51a b1bd
00000260: 5555 7ebd 37c1 fabc 8aa3 a53c 725d 753c
00000270: abec 4fbb 7a39 67bc ec2c 4a3c 8ee2 d73c
00000280: 3bb7 d5bb 9701 a2bc d6e5 63bd 9cb9 0c3d
00000290: 3b44 d13a 1097 9f3d 0d92 e53d 680d 8cbd
000002a0: b9b4 863d 926d 17bc 5103 373e ff43 ae3d
000002b0: 6b76 273e 46a4 453e 75c5 c63d fa8f a4bd
000002c0: 91f2 edbc 1a47 0e3d 3d79 0a3d 39ca db3d
000002d0: bc18 163e 03e1 153d 0374 533b 1cc5 1cbd
000002e0: 2504 0c3c 65be 7b3e 84a5 1c3e 18f8 893c
000002f0: 4540 703d f678 8f3d dae2 353e 453d 54bd
00000300: f901 05be dfa2 edbd 76b2 ab3d 5c9e 8c3e
00000310: aaac f83d f278 f83d d8b1 a1bc 7920 8c3c
00000320: 0f3e 63be 56b6 61be eeab e5bd 0889 0ebe
00000330: c383 3fbe 0ac6 5abd 6c60 70be ba37 65be
00000340: e184 66be 31b9 23be 2540 6abd d1d6 3fbe
00000350: 5f45 77be 4907 49be f844 42be 5c2a 91bd
00000360: e160 efbd 06f5 5bbe 11a3 7bbe 97d5 0fbe
00000370: 0add 043e 59c8 0fbd af9c bcbd a719 5bbe
00000380: 535b 30be 83a0 8f3d 8988 9d3d 232f 11bd
00000390: 916a 9cbd 1de5 30bd 04c3 063e 834a de3c
000003a0: 94f6 e5bd f280 023d da85 85bd 59b5 f03d
000003b0: de4a f23c 7a5a 873d cd6e b23d e1a8 763c
000003c0: b6e8 e43d 8359 2e3d 4802 c13b 39ab e0ba
000003d0: 3662 1b3b 6801 0a3e 6d8c 91bd 36ca 08bd
000003e0: 0a9f 80bc 8d73 31be 954f 363e c20e 84bd
000003f0: b5ff 5d3c 0d9e 1c3d 1e6e 153e 7590 363e
-0.08713672 -0.010080135 -0.04557644 0.01450957 -0.05808623 -0.047225393 -0.07076466 -0.007569362
0.0628034 0.08837154 -0.0020425885 0.022149283 0.0047444925 -0.01468715 0.012864885 -0.017545441
-0.0013164927 -0.034975585 -0.010097365 0.101118736 -0.043499235 0.01818854 -0.06446844 -0.039529197
0.072798826 -0.07137406 0.17699534 0.2108436 0.16865103 -0.09349175 0.1323964 0.14026187
0.13962355 0.07059766 -0.11052459 0.15252876 0.031265557 0.03152808 -0.1361527 -0.15552707
-0.025561519 -0.09325703 -0.005516964 -0.11454769 -0.050823 -0.00059368944 -0.008472412 -0.018090524
-0.09850096 0.042070348 -0.039320588 -0.084503815 -0.08292898 -0.06430029 -0.11005725 -0.038875155
-0.10712016 -0.15879844 -0.13935657 -0.10608115 -0.087127 -0.09269671 -0.14755146 -0.09991661
-0.07630234 0.002805367 -0.10252875 -0.10617076 -0.014773983 0.02026423 -0.025645914 -0.06914533
0.01135136 0.020906799 0.026958518 -0.031401046 -0.046571627 -0.011049054 -0.035535987 0.13533646
0.056061815 -0.10280442 -0.080275424 -0.001097347 0.1130518 -0.013472818 -0.0993511 -0.11870804
0.068457425 0.11845407 -0.062356148 -0.12315503 -0.1093774 0.08480396 0.088436164 -0.11105281
-0.015775122 -0.09558375 0.0015971306 0.08490599 -0.05200636 -0.10191668 -0.013324054 0.025998492
0.058305454 -0.030179469 0.055145726 0.017224582 -0.05141552 0.01084736 -0.077798255 0.011005045
-0.1324037 -0.035706162 0.072661355 -0.14255191 -0.016056309 -0.053259972 -0.03236407 0.10373615
-0.0653524 -0.13130796 -0.059275296 0.054263692 0.02771233 0.07287149 0.023846166 -0.026868315
-0.104200125 0.052244075 -0.029372234 0.01356566 -0.07912883 -0.038213164 0.041812696 -0.10167357
-0.08813954 -0.083535016 0.07074015 0.061528143 -0.0535171 -0.021018103 -0.050243795 0.07822527
0.100177586 -0.12344097 -0.025074203 0.037008308 0.043233655 -0.025217762 -0.050482176 -0.08647684
-0.062093098 -0.03060971 0.020219583 0.014975892 -0.0031726758 -0.014112825 0.012339812 0.026353147
-0.006522087 -0.019776149 -0.05563911 0.0343567 0.0015965769 0.07792485 0.112094976 -0.068384945
0.06577439 -0.009242432 0.17872359 0.08509063 0.16353767 0.19300947 0.09705631 -0.08035274
-0.029046329 0.034735776 0.033807028 0.1073193 0.14657873 0.03659154 0.0032265193 -0.038273916
0.00854591 0.24584348 0.15297514 0.016841933 0.058655042 0.07005493 0.17762318 -0.051816244
-0.12989034 -0.11603331 0.08383648 0.2746457 0.12142308 0.121324435 -0.019738123 0.017105328
-0.22191642 -0.22042212 -0.112144336 -0.13919461 -0.18702607 -0.05341152 -0.23474282 -0.22384539
-0.22511627 -0.15988614 -0.05719008 -0.1873429 -0.24147557 -0.19631685 -0.18971622 -0.070881575
-0.116884 -0.21480188 -0.24573924 -0.14046322 0.12974945 -0.035103176 -0.092095725 -0.21396504
-0.17222337 0.07013037 0.07692058 -0.035445344 -0.076375134 -0.04318725 0.1316033 0.02713514
-0.11228672 0.031861253 -0.06519671 0.11753339 0.029576715 0.06609054 0.0871254 0.015054912
0.111771986 0.042565834 0.0058901645 -0.0017140872 0.0023709661 0.13477099 -0.07106862 -0.03339597
-0.015700836 -0.17329235 0.17803796 -0.06448127 0.013549735 0.038236666 0.14592788 0.17828543

conv2.bias f4 [16]
00000000: 0875 0f3e 0074 153f f0d0 79bc 3c29 9a3d
00000010: 3b4c 213e 69c7 0f3e 9204 2fbe e289 9dbe
00000020: 9c6a ab3f 9ec9 c5bd 9156 3ebe cc95 e6bc
00000030: e2d0 b5be e4da 20bf 085a 1f3f 5fb2 9fbe
0.14009488 0.58380127 -0.0152475685 0.07527396 0.15751736 0.14040913 -0.17091587 -0.3076926
1.339191 -0.09657596 -0.1858771 -0.0281476 -0.35510927 -0.62834 0.6224675 -0.31190774

fc1.weight f4 [120, 400]
00000000: 227a 1abc ebf4 8c3b c6ce 5ebc 788e bc3b
00000010: 6804 863c 55d7 b03c a55b a9bc deb2 f93c
00000020: 0c3f c6bc 0784 23bd 7f81 b9bc 0ffb d2bc
00000030: 32bc ae3a e860 f5bb d77c abbd 60ed 81bd
00000040: 5d8d 40bd 5384 8abd 0cf7 e13c 544e fcbb
00000050: aca4 84bd 0294 483c d55b 1ebb 95a4 d13c
00000060: 0ffa dabc 6bef 903c 9f64 61bd f538 9dbd
00000070: 4a66 a33c a493 593d 6fa5 e1bb 1ade 6cbd
00000080: ffa4 f0bd 7a5c b9bd d223 28bd a977 b3bd
00000090: ed95 4ebd 7ae6 0abe c3f1 e7bd 6130 7ebd
000000a0: 31b3 c2bd 72eb 99bd 9f6a a6bc a28b 99bd
000000b0: 62d2 1ebd bfe3 1ebd 7a6e 46bc 6ba2 1cbd
000000c0: f09a 293d 0b2e 47ba 64de 0a3b a741 c63c
000000d0: 3c01 50bc af51 e03d b06d ee3b 8722 1bbd
000000e0: 4a9f c93b 39ee 503c 2a5d 893d 8572 003c
000000f0: 6d8f 8f3d c517 9a3d 92a0 ddbc 69b1 e63c
00000100: fab7 263d 6ae9 e33d 971a 3c3d 7ff0 21bd
00000110: 5b95 99bc 5ed6 5d3d a940 f23c 0b99 1dbd
00000120: 8f21 6bbd 0d3b 30bd 1b8e 233b 56e0 32bd
00000130: 7a16 0d3d 4a18 5cbc 22a6 c63c 3e04 fb3c
00000140: 0d17 053d fd97 413c 1e2c 203c 9b7e d03c
00000150: 2d26 4a3d 8a2d ffbc d0c0 9fbc 24b9 0bbd
00000160: a8b4 793d c472 c63c 77b7 373d 7a8a b5bb
00000170: c123 7d3d 9a31 a43c c5bf 683c fdce 103d
00000180: c0ec 57b9 46a0 a8bd fd56 683d cce8 9a3c
00000190: 0c57 e1bc 7d6a 483c 6d81 fa3c d7cc 14bc
000001a0: 6000 7b3b effd 7fbd 583b c13c 5594 d9bc
000001b0: ef7f 39bd feaf 523b e614 d6bc 4b80 6c3d
000001c0: 2d81 79bd c313 043d 6c62 e03c 5cf3 123d
000001d0: 84a2 c3bc bdb1 083a 4cfd 123d 8c52 8c3d
000001e0: 9a99 81bd 479d 2abd 4edb dc3a 7e40 ccbc
000001f0: 0464 98bc ce7d b3bc 9b2d be3c 9728 833c
00000200: 24ae 4e3b c39c 4f3c 89c5 97bc 2f54 583c
00000210: da1d 263d a505 b2bc d181 1cba b7c5 c03b
00000220: b930 57bc d0f1 123c 9792 413b 4be4 a73b
00000230: 5715 323c edbb 353d 49ee 783d 43e1 823d
00000240: 92f1 163c 7ca3 003d 3e4f debb 748a 933c
00000250: d0b7 003c b504 973d 62c4 9e3d f414 1b3d
00000260: 719c ea3a fada 7c3c c39f 0f3d 7d6e 33bb
00000270: 6c7f 74bc 7635 0ebc e221 dbbc 95a6 a2ba
00000280: 4501 b5bb 5430 b13c 562c 0ebd 611a c23b
00000290: 7484 b83d a206 5e3d 07bc 05bd 66c1 84bd
000002a0: 12db 34bc e979 4f3d fbe0 543c 3b5e a7bd
000002b0: 4206 afbc 1a9c 22bd 038a 8abb ed1d ee3c
000002c0: 26b1 ba3d 1003 49bc 76d2 9d3c ed49 cb3b
000002d0: 9240 553d 7b42 0f3d 864f 32bd 9635 7cbd
000002e0: c428 703b c53c 39bc 7a45 78bd dfa0 18bc
000002f0: e298 73bd b739 643d e1de 253b 65a2 48bd
00000300: fbd4 42bd 6628 0ebd 2057 8dbc 68cc 08bb
00000310: 7be5 3cbd 5a34 b9bd 87dc 963c e049 c93c
00000320: 3be0 80bd 07bf 8ebc ff20 ccbb 7968 b9bc
00000330: 5ec2 723c 8291 883d f43f 74bb c1f6 563c
00000340: 322f bdbc 1f81 00bd 8f09 a5bc 214b 093c
00000350: 5972 2fbb 420c d03c 4c09 10bd bbbb c7bb
00000360: f424 05bc b960 393c 92e5 7e3d 5b9d 1a3d
00000370: 5adb 013d b39b e73c f320 58bc c0ad f33c
00000380: a913 573d f196 8b3d 76e5 3a3d a361 1d3d
00000390: b79c 01bd 4e3f 2d3d 6389 ac3d b3e6 fe3c
000003a0: 11ae bdbc 0535 3e3b 340d 7e3d a3b0 fb3c
000003b0: c5ee fdbc cc83 963d 340c 133d 8598 bb3d
000003c0: 167f edbb 1aa8 6d3c 0297 ca3c 36ff 843c
000003d0: f6de 043d 6f01 8b3d 950c cdbd d54e 9ebd
000003e0: bf80 94bd d325 683c 8761 a63c 76d2 ce3b
000003f0: 4319 14bd f089 2bbd 4ea5 ab3c c838 0dbd
-0.009428533 0.0043016574 -0.013599103 0.0057542883 0.016359523 0.021587053 -0.020673582 0.030480798
-0.024199985 -0.039920833 -0.022644756 -0.02575448 0.0013331233 -0.0074883588 -0.08373421 -0.06344104
-0.047009815 -0.0676352 0.027583621 -0.007699767 -0.06476721 0.012242319 -0.0024163623 0.025591174
-0.026730565 0.017692288 -0.0550276 -0.07676879 0.019946236 0.053119317 -0.0068861763 -0.057829
-0.117502205 -0.09050842 -0.041049786 -0.08763058 -0.05043595 -0.13564482 -0.11325409 -0.062057856
-0.09506834 -0.07515611 -0.020314513 -0.07497336 -0.038774855 -0.038791414 -0.012111301 -0.03824083
0.041407526 -0.00075981085 0.0021189684 0.024201227 -0.012695607 0.1095308 0.0072762594 -0.037874725
0.006153022 0.012752109 0.06707223 0.007839804 0.07009778 0.07524065 -0.027054105 0.028160768
0.040702797 0.111285046 0.045923796 -0.039535996 -0.018747976 0.054159515 0.029571848 -0.03847603
-0.05740505 -0.043025065 0.0024956528 -0.043670975 0.034445263 -0.013433525 0.02424914 0.030641671
0.032492686 0.011816022 0.009776143 0.025450995 0.049352814 -0.031149644 -0.01950112 -0.03411211
0.060963303 0.024224646 0.0448527 -0.0055401893 0.061801676 0.020043183 0.014205878 0.03535365
-0.00020592194 -0.08233695 0.056723583 0.018909834 -0.027507327 0.01223242 0.030579293 -0.009082041
0.0038299784 -0.06249803 0.023587868 -0.026559988 -0.045288023 0.0032148357 -0.026133012 0.057739537
-0.060914207 0.03224541 0.027390681 0.035876617 -0.023881204 0.00052144733 0.035886094 0.06851682
-0.06328125 -0.041653898 0.0016850026 -0.024933096 -0.018602379 -0.021910574 0.023215106 0.016010566
0.0031536901 0.012671652 -0.01852681 0.013203665 0.040555812 -0.021731207 -0.0005970272 0.0058829444
-0.013134175 0.008968785 0.0029536837 0.00512365 0.010869346 0.044368673 0.06077412 0.063906215
0.009212868 0.03140591 -0.0067843487 0.018010356 0.007856324 0.07373945 0.07752301 0.03786178
0.0017899406 0.015433067 0.03506447 -0.0027379089 -0.014922958 -0.008679738 -0.026749555 -0.0012409264
-0.005523833 0.02162949 -0.03471025 0.0059235548 0.090096384 0.054205544 -0.03265002 -0.064822
-0.011038559 0.050653372 0.012993093 -0.0817227 -0.021365289 -0.03969965 -0.004227878 0.029067004
0.0911582 -0.012268797 0.019265395 0.006203881 0.052063532 0.03497551 -0.04353287 -0.06157454
0.0036645392 -0.0113059925 -0.060613133 -0.009315698 -0.059471972 0.055719104 0.0025309848 -0.048982996
-0.047566395 -0.034706496 -0.017253458 -0.0020873789 -0.046117287 -0.090431884 0.018415703 0.02457136
-0.062927686 -0.017425073 -0.0062295194 -0.022632824 0.014816849 0.066683784 -0.0037269564 0.013120354
-0.023093794 -0.03137314 -0.02014616 0.0083797285 -0.0026771037 0.02539647 -0.035165116 -0.0060953773
-0.008126486 0.011314564 0.062230654 0.037747722 0.03170333 0.028272485 -0.013191449 0.029745936
0.052508984 0.06815899 0.045628987 0.03842319 -0.031643596 0.0422967 0.08424642 0.031115865
-0.02315429 0.0029023301 0.06202431 0.030723875 -0.030997643 0.07349357 0.03590031 0.0915995
-0.007247816 0.014505411 0.02473021 0.016234975 0.032439195 0.06787383 -0.100121655 -0.0772988
-0.07251119 0.014169174 0.020310177 0.00631171 -0.036156904 -0.041879594 0.020952847 -0.03447798

fc1.bias f4 [120]
00000000: ff4f 07be 0656 ac3d ad18 e73d e724 003d
00000010: 128a 0f3e 3188 ecbb 848f 283d acda 2b3d
00000020: 60bc 9abd 55ae 023d 6441 e03d cabf d2bd
00000030: f5ed 36bc e76d edbc 4888 5a3d bae7 07bc
00000040: f898 8d3d fa76 063d 7132 3bbd c774 2cbd
00000050: 3abc b23d a520 cc3c bf34 ab3a 56c9 093e
00000060: ce03 233d 4a07 663d 5c3b 17bc 5bb5 3dbd
00000070: 3d55 0cbd f757 b63d fc87 09bd 08bf ff3c
00000080: ced9 92bd 0403 24bd ccd9 ba3d 5d1d efbc
00000090: 0882 08bd 812d bcbc 4e27 6cbe f4a4 a33d
000000a0: ef1a a83c 5d4e 40bc 4534 26bd 8639 4b3c
000000b0: 3835 eabd 20d5 c3bd 31ab b63d 3233 d03d
000000c0: 84a8 a83e a52e f1bc e905 7cbc 0be0 c5bd
000000d0: 1088 b13d 6000 0e3d b6d5 f8bb d6ca 213e
000000e0: 4164 243c 3ba6 54bd af9a 4e3c 0a89 19bd
000000f0: 3440 20bd 6198 41bd ddfd 123e e91a 003d
00000100: 6f04 12bd 8153 94b9 cc79 4cbd a909 9f3c
00000110: ee9c a0bb ed46 ac3d 6b83 d83c dc0a a9bd
00000120: bca9 d0bc df68 18bd 53a2 abbc 354d a7bc
00000130: 1cde 7a3d d7e5 4a3c 4e7a 5a3d 4505 08bd
00000140: 6ca0 883d eee3 063d 1cee 213e fee4 cfbd
00000150: 545f 663d b6fb 80bb f6b2 28bd bf64 10bd
00000160: 4263 d13b 4244 82bd 45ac 1a3e f584 d7bc
00000170: 9b3c 01bd a08c afbd 2b82 813d f71e 933d
00000180: 6e3d b63c a0d8 15bd 4abe 1abd 97b3 383e
00000190: accd 583d 2c0a f53d cb66 143e da85 923d
000001a0: f3c1 bd3c a8ff 17bd 7ebb 673d 47da 143e
000001b0: 1a21 7b3c 846f d83c 1a91 2f3a c86a f43c
000001c0: 67aa 6a3d 7dd1 01bc b43f 5a3d 99d0 43bd
000001d0: 358a a63d fd63 b23d db02 67bc 00f7 123e
-0.1321411 0.08414845 0.112840034 0.031285193 0.14017513 -0.0072183837 0.041152492 0.04195659
-0.07555461 0.031904537 0.10949972 -0.10290487 -0.011165132 -0.02898307 0.053352624 -0.008294994
0.06913942 0.03282831 -0.0457024 -0.042103555 0.087273076 0.02491791 0.0013061984 0.1345571
0.03979855 0.056159295 -0.009230461 -0.046315532 -0.034260977 0.08903497 -0.03357695 0.03121902
-0.07170449 -0.04004194 0.09123573 -0.029188806 -0.033327132 -0.022970917 -0.23061869 0.07990447
0.020520655 -0.011737433 -0.04057719 0.012403851 -0.11435932 -0.09562135 0.08919371 0.10166015
0.32941067 -0.029441187 -0.0153822685 -0.096618734 0.0866853 0.034668326 -0.0075938357 0.15800032
0.010033668 -0.051916342 0.012610122 -0.037484206 -0.03912373 -0.04726446 0.14354654 0.031275664
-0.03564876 -0.00028290975 -0.049920842 0.019413786 -0.00490152 0.084119655 0.026429852 -0.082540244
-0.02547156 -0.037209388 -0.020951426 -0.020422557 0.061246976 0.0123839 0.053339295 -0.03320815
0.06671223 0.032932214 0.15813488 -0.10151099 0.056243256 -0.0039362563 -0.041186295 -0.03525233
0.0063900063 -0.063606754 0.15104778 -0.026308516 -0.03155194 -0.08571744 0.06323656 0.071836405
0.022246089 -0.036583543 -0.03777913 0.18037258 0.05293052 0.11964831 0.14492337 0.071544364
0.023163771 -0.037109047 0.05657529 0.14536391 0.015327716 0.026420362 0.0006697342 0.029836074
0.057291415 -0.007923481 0.05328341 -0.047806356 0.0813183 0.087104775 -0.014099802 0.14352036

fc2.weight f4 [84, 120]
00000000: 35c3 16bb cf5a 2a3d 977f 90bc 3a5d d43b
00000010: 60dc 93bc c17e 3c3d 0b85 cb3d f43c aebd
00000020: eaa6 293d 50c5 25bd c291 12bd ae2a bfbd
00000030: 81f6 873c 3329 0f3d 1fd2 b53d 8ac9 96bd
00000040: 8638 4bbd 4239 1f3c cb35 ac3d 0155 983d
00000050: 3789 07bd bfaf 69bd 3acd 0dbd 4560 f9bc
00000060: da9f 7d3d ed9f 793d 2823 60bd 2ae8 47bb
00000070: 8842 20bd e0a3 cbbd 576d d13c 8d04 febd
00000080: 0aef 9abc 61e3 973d 2d4b 87bc d28e 87bd
00000090: aa2d bbba 6a56 ddbd 2b8e bcbd efac d3bb
000000a0: 565e 233a 6208 96bd 3109 c5bd a203 823d
000000b0: a9a4 a4bd 3de4 02bd e478 b1bc 2133 5dbc
000000c0: ae82 8e3d 7f16 213d d9f0 c2bd e19c 4e3d
000000d0: 3333 523d 787f c53d 02c0 023d 4326 693d
000000e0: 1c15 3e3d 9f40 e4bd 2c90 71bd 7676 b1bd
000000f0: 8e21 06be 264f 94bc 72c6 6ebc e45a f6bb
00000100: c9b7 7fbd 45d8 2bbd 480e 6cbc afec df3b
00000110: 3b8a 9dbc f062 283d 177c 063d e33f 17bd
00000120: a650 353d d472 a039 0c81 3fbd d8bf a3bc
00000130: c5c4 bdbd 6e88 b3bd eebc 24bd 8956 8b3c
00000140: 2a7f 983d c0dc 303c 4894 f13c f0d0 c9bd
00000150: f7be dd3a f57c fab9 13e7 cdbb e1ec 283d
00000160: 05a2 0dbd 2fe9 473c 18c2 403b 59c1 08be
00000170: 5cbc 46bd 7b2f 6cbd f361 e5bb 1406 ddbd
00000180: 4d76 e23c 6561 3d3d 8299 09bc e96d a43d
00000190: 9efd 9abd bb66 003d 80ec 6abd 7e13 8abd
000001a0: 6945 8abd 7ef7 a73c 503c 213d a22c 1d3d
000001b0: 2d75 babd 01fa 34bd 89bc aebc 22de 54bc
000001c0: 9799 8b3d b985 48bc b172 3f3d b159 303d
000001d0: a962 7fbd 17a7 853d 52b4 7a3d da73 a43d
000001e0: b57f e23c 17fe 0a3d 8f5e b1bd 593b 74bd
000001f0: 26fd 48be ff1e a8bc f61c b43c b42e 42bc
00000200: 9933 043d 4f08 d53c 972a bebd 14f8 4d3d
00000210: 1431 a33c 1151 a63d 9cd3 a5bd 6878 23bd
00000220: bde6 c4bd aaef 3b3d ac8c 6ebd 3d6f e33b
00000230: e4d2 c43c 8bdf a83d f253 973d 0232 a0bd
00000240: 8d41 d43c 1141 503d 2bb4 7e3c 8b42 51bc
00000250: ce19 783d 930e 403d 2836 4d3d d5cb d2bd
00000260: 67ea 993d 111f 273d ec2f 983d 0f4d 9abd
00000270: a253 1f3e a6ca e3bd 0bb9 193e e8ae 8cbd
00000280: 6d3e d53d 3edc 15be 47a7 c4bd ab6c 6bbd
00000290: 5551 a1bd 043c aa3d fa21 8c3d 8bf7 c33d
000002a0: 6f5a 333e 6026 8f3d a4fd dbbd 3d20 ea3d
000002b0: 362a da3d 4f51 5e3d 4dc3 aabd 8554 0cbc
000002c0: cf04 63bd f75d e8bc 5d01 a1bc 548a c4bb
000002d0: 5f3e c0bc ae3c d23c 436c 1ebc c43c 88bd
000002e0: e56c 863c d5ce 20bd 0a80 5ebd b975 313e
000002f0: 9da1 d7bc e322 e63d 7eae 7fbd 8407 48bd
00000300: 1b34 063d 5899 abbd 5c41 953c 13ce 0abc
00000310: dc5b 0e3d 4006 b7bb ace5 a63d d80c 883b
00000320: d594 f7bc f0af 7f3d 2af7 6d3d da38 0fbe
00000330: a41f 94bd 5a51 6bbd 8b52 d5bd ecf5 1fbd
00000340: f676 8bbd 3c33 513c 72fc 1fbe 5f89 26bd
00000350: cd84 95bd 2c1b c7bb e090 e23d 3350 2a3d
00000360: 5c9b 93bd c626 c43d 089a 64bd a60a 383d
00000370: 4c2a 63bd 44d3 c73d 0b38 c93d feee c73d
00000380: c916 183c 3e4b bcbd 6f5f 053c 5c59 b83d
00000390: 41dd 80bd 1c3a b8bb 7c34 b0bd 6f77 d03c
000003a0: e033 ba3b 64a7 83bc fd8c 053c 8ffb 07be
000003b0: ed8b 5dbd 3e7f e5bb 20a0 843d b3af 5a3d
000003c0: bc2a c0bd f27f b0bd e48b 9a3d af4b 6c3d
000003d0: 4ad6 9abd 0352 463a b7ee 5f3d 5e06 bd3d
000003e0: 3d21 81bd 6d1b 85bd 4af1 fa3b 71d1 5039
000003f0: 04f6 803d 18c8 b9bd f037 ddbd 3ebd bb3d
-0.0023004536 0.041590508 -0.017638965 0.00648084 -0.018049419 0.04601932 0.09937485 -0.0850772
0.041418947 -0.040471375 -0.035783537 -0.093343124 0.016597034 0.0349514 0.08877968 -0.07362659
-0.04961445 0.009718241 0.08408698 0.07438088 -0.033089843 -0.05705237 -0.034619547 -0.030441413
0.061920024 0.060943533 -0.054721028 -0.003050337 -0.03912595 -0.09943366 0.025564833 -0.12403212
-0.01891281 0.07416416 -0.016515339 -0.06619038 -0.0014280577 -0.10807498 -0.09206804 -0.0064598243
0.00062320137 -0.07325818 -0.09620894 0.06348349 -0.08039219 -0.031955946 -0.02166409 -0.01350096
0.06958519 0.039328095 -0.09518594 0.05044258 0.05131836 0.09643453 0.031921394 0.056921255
0.04640685 -0.11145138 -0.058975384 -0.08665173 -0.13098738 -0.018104147 -0.01457368 -0.007518159
-0.06243113 -0.041954298 -0.014407702 0.006833635 -0.019230952 0.04110998 0.032833185 -0.03692616
0.044266365 0.00030603132 -0.046753928 -0.01998894 -0.092660464 -0.08766256 -0.04021924 0.017009037
0.074461296 0.010794818 0.029489651 -0.09854305 0.0016917874 -0.00047776816 -0.0062836497 0.04124153
-0.034578342 0.012201591 0.0029412564 -0.13355006 -0.048519477 -0.05766247 -0.007000202 -0.10792175
0.0276443 0.04623546 -0.0083984155 0.08028776 -0.07567905 0.03134797 -0.05735445 -0.06741999
-0.0675152 0.020503756 0.03936416 0.038372643 -0.09104381 -0.044183735 -0.021330135 -0.012992414
0.06816404 -0.012238913 0.046740238 0.043054286 -0.06234995 0.065260105 0.061207123 0.080299094
0.027648786 0.033933725 -0.08660614 -0.05962691 -0.19627818 -0.020522593 0.021986466 -0.011851955
0.03227577 0.026004938 -0.09285467 0.050285414 0.019920863 0.08120931 -0.08097002 -0.03990975
-0.09614322 0.04588286 -0.058239624 0.006940751 0.024026342 0.082457624 0.07389058 -0.07822038
0.025910163 0.050843302 0.015545885 -0.012772213 0.060571484 0.0468889 0.050100476 -0.10292784
0.07515412 0.04080111 0.07431015 -0.07534229 0.15559247 -0.111226365 0.15011995 -0.06869298
0.104122974 -0.14634797 -0.09602218 -0.05747668 -0.07876841 0.08312228 0.06842418 0.095686994
0.17514966 0.06989741 -0.107417375 0.1143193 0.10652582 0.05427676 -0.08338032 -0.008565073
-0.055424508 -0.028365118 -0.01965397 -0.0059979353 -0.02346724 0.0256637 -0.009669366 -0.06652215
0.016409347 -0.03925975 -0.054321326 0.17330064 -0.02632218 0.11237123 -0.062422268 -0.048835292
0.032764535 -0.083788574 0.018219642 -0.0084719835 0.034755573 -0.005585462 0.08149275 0.0041519217
-0.030222336 0.062423646 0.058097042 -0.13986531 -0.072325975 -0.05745063 -0.104161344 -0.03905289
-0.068097994 0.012768563 -0.15623644 -0.04065835 -0.0730072 -0.006076237 0.11062789 0.04158039
-0.07207367 0.09577708 -0.05581096 0.04493203 -0.05546026 0.097570926 0.098251425 0.09762381
0.009282776 -0.09194039 0.008140429 0.09001419 -0.06292201 -0.0056221616 -0.086037606 0.025447575
0.0056824535 -0.016071029 0.00815129 -0.13279556 -0.05408852 -0.007003694 0.06475854 0.053390216
-0.09383151 -0.08618154 0.07546213 0.057689365 -0.07560404 0.0007565321 0.054671016 0.0922973
-0.06305168 -0.06499372 0.0076581584 0.00019914449 0.06296924 -0.09071368 -0.10801685 0.091669545

fc2.bias f4 [84]
00000000: 8e10 203d d77a b2bc d4aa 153c 86a0 dfbd
00000010: a9ed 533b 080e 963c a2a7 963d 93e3 ec3d
00000020: 46c0 79bc 8284 e83d 5194 82bc 589f 1fbd
00000030: eaef 323d 7e26 b43d 59d2 833e a70a d3bd
00000040: a9ec a4bd a01d e23e 0f9f 41bd f4c5 373d
00000050: 5eb9 c73a 7479 aa3c 00c9 90bd 8c09 94bd
00000060: 1d79 dabd 401b d43d 0670 85bd f85b b93d
00000070: e97d 11bd 89fb 093e cf54 ec3d 51ec 143c
00000080: 0d43 183d 75a4 3cbc d2c0 243d 0c9a 963e
00000090: e22c 863d 7db7 4bbd 5d06 083d 12cd 183e
000000a0: 729e 293e 04b7 a8bd 8c95 983e 95e7 81bd
000000b0: 1340 bd3b 8fe7 ea3d 1f56 ca3e 5f68 c93d
000000c0: e0dd b0bc e512 8e3d 99a2 c7bd 8ce2 1f3e
000000d0: 271e d9bd 1e04 2c3c 0cf9 1dbd b2ed fdbb
000000e0: e7fe 1ebd d74e 00bc 781f c4bd 0645 6cbd
000000f0: 99e8 923c 83b0 b8bc 4224 80bd 86b9 bf3e
00000100: 1449 2e3e 4fcd 28bd 43a6 2fbd 3b93 423c
00000110: faf2 113e e980 d73c 0569 eb3d 4a2d bf3e
00000120: a827 e63d 81d1 ad3e 9d49 6f3e 878a dd3c
00000130: 795f 59bb a05e 103d e625 a3bd 0951 91bd
00000140: 6185 6b3c 3050 0dbd c6ed 9ebd f976 a7bb
0.039078288 -0.02178709 0.009134967 -0.10919289 0.0032337701 0.018317237 0.07356192 0.11566844
-0.0152435955 0.11353399 -0.015939863 -0.03897032 0.04368583 0.08796404 0.2574642 -0.10304766
-0.08052952 0.44163227 -0.04727083 0.044866517 0.0015237739 0.020809866 -0.07069588 -0.072283834
-0.10667632 0.1035676 -0.065155074 0.09050745 -0.035520468 0.1347486 0.115396135 0.009089545
0.03717332 -0.011513819 0.04022295 0.29414403 0.065515295 -0.049735535 0.033209193 0.14921978
0.16564348 -0.082380325 0.29801595 -0.06342999 0.0057754605 0.114699475 0.3951883 0.0983436
-0.021590173 0.069371976 -0.0974781 0.15613765 -0.10601454 0.0104990285 -0.038567588 -0.0077492828
-0.038817313 -0.007831297 -0.09576315 -0.057683013 0.017933177 -0.022545105 -0.06256916 0.3744623
0.17020065 -0.041211423 -0.04288317 0.011875923 0.14252844 0.026306586 0.1149464 0.3733924
0.112380326 0.339489 0.23367925 0.027043594 -0.0033168478 0.03524649 -0.07966213 -0.07095534
0.014375062 -0.0345003 -0.077601954 -0.005110618

fc3.weight f4 [10, 84]
00000000: c5b6 8bbd 671d 00be ce77 823e 2bb4 0fbc
00000010: 05da db3b 25b0 86bb 4b0c 1f3e 7195 933e
00000020: 09fc f8bb 0418 97bd e2da a43e 8c51 83bd
00000030: 9443 753d 26e1 db3c d4cf 753d 7477 a83d
00000040: 204d bf3d 0ce4 8d3d 453b 23bd 3529 cd3d
00000050: a0aa 08bd 7b11 9c3d 8f10 0fbc 66ac 1abd
00000060: f6fb 3c3e 0b58 1bbe 5a58 01be ef2f 213e
00000070: 5a84 54bc 5c23 013d 27cd f13c a840 cebd
00000080: 06e6 80bd 4b17 9fbd b133 723c a3c6 2cbe
00000090: 6761 823e d2e5 29be 082f 00be c0c1 2cbe
000000a0: 92ff 26be c53d 833e 57f8 54be 1dd0 15bd
000000b0: bb29 443e d7f2 88bc 7d07 85bd 4520 8b3d
000000c0: 1ad0 09bd d9cf fa3d 445b fabc 26cc c8bd
000000d0: b7b5 c73d 2a03 c13c 84d2 9cbc 56e3 c33d
000000e0: 5c19 52bd 56cb df3c e807 19bd 8d0f 1abd
000000f0: be85 e4bd a81b 3e3d cb0a 163e 266b 40be
00000100: 8b45 2abe da5b 3d3d 4eeb d53d ac55 25bd
00000110: d903 a3bd 5b14 263e 91c5 433e a5bd 2ebe
00000120: c5d0 20be 195b 49be a5c6 573e 8a4d 6c3c
00000130: ff79 16be f64e e13d 32d4 9c3d 2c16 8abd
00000140: 9ced 1a3e e75a e33b 3d51 e23d feaa 5c3c
00000150: 422c ef3c a1e7 20be 6510 9b3e ca6d 2fbd
00000160: 8625 8b3d 0cb7 9abd 6674 30be 0b26 8fbe
00000170: 64fb cb3d 4c56 dabc 55d5 13be 38a5 9bbd
00000180: 6f33 c33d cd8a a23d 7270 c0be 33f5 1ebb
00000190: 9ee1 c83c c1a1 403d 35fc 243d 441c 44bd
000001a0: edbf 8ebd 46fb 113e ebfd d3bc c747 df3c
000001b0: ca6e 993e a8a4 213e 5e0a a43d a3fd a6be
000001c0: 6a38 ee3c e81e 1f3e b045 0c3e 9078 543e
000001d0: 6253 27bd b6a6 3d3d 63fa b5bd 96b4 11be
000001e0: 2387 b63d 2a2e 6c3e 06e5 7e3d d198 b83c
000001f0: 25bd a03d e830 523d a8a3 0dbe ee97 89bd
00000200: 656a 153b 307c 323e 4a47 1dbe cc76 e8bd
00000210: e397 b13d 553a a6bd 69e7 9f3d 2ef2 b4bd
00000220: 482c bc3e 9722 f23d 7630 d43b 2d55 7bbd
00000230: eb80 cebd 0eea 1cbc 50a0 4bbd 6ab3 65bd
00000240: 4aa9 c43d 370f 7b3d e8b8 363d 0dfc 94be
00000250: f422 3bbe 92d2 68bd de83 eb3d a3da 643d
00000260: c058 ebbe 46c3 003e 7dda 67be a174 a5bc
00000270: 0d23 f23d 4c22 10be 45e5 35be 7704 5a3e
00000280: 0bac 90bd 9499 d23c 14d5 a13d 12bf 583d
00000290: 126a 223e 9391 853e ec4d 4a3d b904 61bb
000002a0: 8936 e0bd 6d26 36be e331 c3bb 7754 8abd
000002b0: 90c9 87bd 6494 da3d cde9 c53d e552 0d3e
000002c0: 210d e8bd dfb6 66bd f6c7 ac3e b6fb f6bc
000002d0: 073a b0bc a8d3 893e d2ef 9b3e d995 3b3d
000002e0: 9713 113e d298 1b3e 25c0 283d 0d5d 1b3e
000002f0: 3e5f a83d 69aa 933d af69 c93d 39f6 e3bc
00000300: 66fd 62bc 1165 84bd 8a04 babd 525d 363e
00000310: ce41 a8bd 7d28 1dbe 8b0d ddbd 0faa 1dbe
00000320: 06e0 f23d 31d3 b13c 3271 9f3d db7c 9f3d
00000330: 236d ff3d 11c2 913c 026d 99bd bc8b 5f3e
00000340: 568d bebd 2ab4 f0bd 4485 68bc 247c d93d
00000350: 9728 233e a1fd e0bd 4969 833d 7c95 7bbc
00000360: 3d04 0bbe bb2a 1fbe 8ae5 40bd 2f3c 903d
00000370: e93b 6e3c e50b 35bd ac59 3dbd bc6e 0e3e
00000380: 77e2 fc3d 2fd9 763e c6fe acbd b9ec efbc
00000390: d1f1 5f3d 4b02 2c3d f1b8 79bc 93cc 143e
000003a0: 3fc2 8a3e c6ab 36bb 5930 7bbe 75dd ef3c
000003b0: 263e f83d b7e3 40bd 42c9 753d 48f6 0c3e
000003c0: b993 843d a941 993c 42af 21bd 1e69 b4bd
000003d0: fab8 bfbd 6704 dcbd c149 acbd 56d4 07be
000003e0: dbfc 2dbd 610a 08be b3a6 ccbd ff0e 733e
000003f0: 6180 63bd c42a 9e3c 517b 4cbe 2539 8d3d
-0.0682197 -0.12511216 0.2548203 -0.008770983 0.0067093396 -0.0041103535 0.15532033 0.28824952
-0.0075984043 -0.073776275 0.32198244 -0.06412038 0.0598789 0.026840758 0.060012653 0.08225909
0.09340882 0.06928262 -0.039851446 0.10017625 -0.033365846 0.07620522 -0.008731975 -0.03776207
0.1845549 -0.15170304 -0.1263136 0.15740941 -0.012971008 0.031527862 0.02951677 -0.10070926
-0.062938735 -0.07768115 0.014782832 -0.16872649 0.25464937 -0.16591576 -0.12517941 -0.16870785
-0.1630843 0.25633064 -0.20797859 -0.036575425 0.19156544 -0.016717358 -0.06495569 0.06793264
-0.033645727 0.12246675 -0.030561097 -0.09804563 0.09751456 0.023561079 -0.01914335 0.09564845
-0.051293716 0.027318638 -0.037361056 -0.037612487 -0.11158322 0.046413094 0.14652555 -0.18790874
-0.16628091 0.046230175 0.104452714 -0.040364906 -0.07959718 0.16218702 0.19118334 -0.17064531
-0.1570464 -0.19663657 0.2107187 0.014422784 -0.14694975 0.11001389 0.076576605 -0.0674251
0.15129703 0.0069383266 0.11050651 0.013468502 0.029195908 -0.1571336 0.30285946 -0.042829312
0.067942664 -0.07554445 -0.17231902 -0.27958712 0.09960058 -0.026652478 -0.14436848 -0.07599872
0.095312946 0.079366304 -0.3758579 -0.0024255037 0.024521645 0.04702926 0.040279586 -0.04787852
-0.06970201 0.1425601 -0.025877913 0.027255906 0.29967338 0.15785468 0.0800979 -0.32615384
0.029079635 0.15539134 0.13698459 0.20749116 -0.040851004 0.046301566 -0.08885648 -0.14229044
0.08912494 0.23064485 0.062230133 0.022533806 0.078485765 0.051316172 -0.13831961 -0.067184314
0.0022799012 0.17430186 -0.15359226 -0.11350784 0.08671548 -0.08116595 0.0780781 -0.088352546
0.36752534 0.11823004 0.0064755036 -0.061360527 -0.10083183 -0.009577287 -0.049713433 -0.056079306
0.09602602 0.061293807 0.044609934 -0.2909855 -0.18275052 -0.05684144 0.11499761 0.05587257
-0.45966148 0.12574491 -0.2264194 -0.020197215 0.11823092 -0.14075583 -0.1776324 0.21290766
-0.070640646 0.025707997 0.079019696 0.052916594 0.15860775 0.26087627 0.04939072 -0.003433509
-0.10947902 -0.17788096 -0.0059568747 -0.06754392 -0.06630242 0.106728345 0.096637346 0.13801153
-0.11330629 -0.056326743 0.33746308 -0.030149322 -0.021512045 0.26919293 0.30456406 0.045797203
0.14167629 0.15195015 0.04119887 0.15172215 0.08221291 0.072102375 0.09834611 -0.027827369
-0.01385436 -0.064645894 -0.09082897 0.17809036 -0.08215676 -0.15347476 -0.10793599 -0.15396903
0.11859135 0.02170715 0.07785262 0.07787486 0.12471988 0.017792733 -0.07491495 0.21830648
-0.093043014 -0.117531136 -0.014191929 0.10619381 0.15933453 -0.10985876 0.06416566 -0.015355464
-0.13575836 -0.15543644 -0.047093906 0.07042729 0.014540651 -0.044200797 -0.046228096 0.1390943
0.12347882 0.24106286 -0.08447032 -0.029287683 0.054673973 0.041994374 -0.015241847 0.14531164
0.27101323 -0.002787338 -0.24530162 0.029280404 0.12121229 -0.047092166 0.060006388 0.13765824
0.06473488 0.018708067 -0.03947378 -0.08809112 -0.09361453 -0.10743027 -0.08412505 -0.13264593
-0.04247747 -0.13285209 -0.09992733 0.2373619 -0.055542354 0.019307502 -0.19968916 0.06895665

fc3.bias f4 [10]
00000000: e5eb e6be 2bac c3be 017c d13d 0127 9e3e
00000010: fdcf 053f d48b 3bbe a6c5 f73e 4671 74be
00000020: 4356 a5bd 00d1 afbe
-0.45101848 -0.3821729 0.1022873 0.30889133 0.5227049 -0.18315059 0.4839298 -0.23871335
-0.08073094 -0.34339142
